data.pth (torch, 5055 bytes, 6 tensors)

l1.weight f4 [8, 56]
0	0x3f3a1506	0.7268833
1	0x3c316741	0.01082784
2	0x3e90eecf	0.28307196
3	0x3e8c58dc	0.27411544
4	0x3eaada1d	0.33369532
5	0xbebdb33f	-0.37050816
6	0x3ec8ad65	0.3919479
7	0x3e6a5dd0	0.22887349
8	0x3ebbab97	0.3665435
9	0x3ec0d943	0.37665758
10	0x3ee36a71	0.44417146
11	0x3c799461	0.01523313
12	0xbe99e511	-0.30057576
13	0x3db2ed6f	0.08736693
14	0xbe12255e	-0.14272067
15	0xbde6f3c0	-0.112769604
16	0x3e9d0d0d	0.3067402
17	0xbf0df28c	-0.5544822
18	0xbea391b8	-0.31947112
19	0x3f0d1290	0.5510645
20	0x3f10662a	0.5640589
21	0x3f1dc453	0.6162769
22	0x3f03004c	0.5117233
23	0x3dab42e4	0.08362368
24	0x3ee49b53	0.44649753
25	0x3e58c74f	0.2116978
26	0xbe50e43f	-0.20399569
27	0xbed3b445	-0.41348472
28	0xbe33bf2e	-0.17553398
29	0xbef57b2b	-0.47945532
30	0xbe7ddd57	-0.24791466
31	0xbc32ee4b	-0.010921071
32	0x3f0fe2a4	0.562052
33	0x3e93be98	0.2885635
34	0xbdf1d328	-0.11807853
35	0xbdc30ffa	-0.09524532
36	0xbe7dee45	-0.24797924
37	0x3f010b4d	0.5040787
38	0x3e8d1eda	0.275626
39	0x3e752b10	0.23942208
40	0xbe0e1ada	-0.1387743
41	0xbec1f600	-0.37882996
42	0xbd5a1224	-0.053239956
43	0xbe7d6636	-0.24746022
44	0x3e81e1d8	0.25367618
45	0xbeb295af	-0.34879825
46	0x3f93330b	1.1499952
47	0x3f0b4128	0.54396296
48	0xbd8c70a1	-0.0685742
49	0xbefd26e8	-0.49443746
50	0xbd33c527	-0.04388919
51	0xbeb7b39d	-0.35879222
52	0x3e63bbfd	0.2223968
53	0x3ea6e581	0.32596973
54	0x3eafb884	0.34320462
55	0x3edfa21a	0.4367836
56	0xbdf3c957	-0.11903637
57	0xbddef046	-0.10885672
58	0xbd64e99a	-0.055886842
59	0x3c9d28a2	0.019184414
60	0x3d58f69f	0.05296957
61	0x3f7e06d1	0.9922915
62	0xbe113c90	-0.14183259
63	0xbe2dec8a	-0.16984764
64	0xbe57c92c	-0.21072835
65	0xbddf761a	-0.10911198
66	0x3e217c3e	0.15770051
67	0xbe0280da	-0.12744465
68	0xbe9895b3	-0.2980171
69	0x3e5e627c	0.21717256
70	0xbdcfc887	-0.101456694
71	0xbdcd4386	-0.10022645
72	0x3c9b39c1	0.018948438
73	0x3f6b1158	0.9182334
74	0xbda6e417	-0.081489734
75	0x3e7e2419	0.24818458
76	0xbe3c2c31	-0.18376233
77	0x3e31dbe7	0.17369042
78	0x3e4dc5fd	0.20095058
79	0x3ea9441c	0.33059776
80	0xbe385fd5	-0.18005307
81	0x3d3d41bf	0.04620528
82	0xbd9e589f	-0.07731747
83	0xbe1c511a	-0.15265313
84	0xbe3065b6	-0.172263
85	0x3d9ea841	0.07746936
86	0x3f1c0d47	0.6095776
87	0x3e665f5e	0.22497317
88	0xbdbbce31	-0.09170187
89	0xbe011d34	-0.12608796
90	0xbaa8d62b	-0.001288121
91	0x3d27c25c	0.04095684
92	0xbdf67078	-0.120331705
93	0xbcb56003	-0.022140509
94	0xbc003a84	-0.007826451
95	0xbd3da6c0	-0.046301603
96	0x3ef6dcf8	0.4821546
97	0x3b7ea2a7	0.0038854273
98	0x3de4274b	0.11140307
99	0xbe21a0c6	-0.15783986
100	0x3dca6355	0.09882227
101	0xbe604b09	-0.21903624
102	0xbef58684	-0.4795419
103	0xbe34d5ab	-0.17659633
104	0x3cb60df2	0.022223447
105	0xbe40766d	-0.18795176
106	0xbd9780af	-0.07397591
107	0xbcc45810	-0.023967773
108	0xbdd3f3ac	-0.10349211
109	0x3961ddb2	0.0002154026
110	0x3c5c7dbe	0.013457714
111	0xbb787a10	-0.0037914552
112	0x3ebacac8	0.36482835
113	0xbdf0e7d1	-0.117629655
114	0x3d8c5678	0.0685243
115	0x3f058c0f	0.5216684
116	0x3df62cf4	0.12020293
117	0x3e8f7ac0	0.28023338
118	0xbea4e396	-0.32204884
119	0xbb042c32	-0.0020167944
120	0xbf220a1a	-0.63296664
121	0xbd1544db	-0.03644262
122	0x3eaf6b5f	0.34261605
123	0xbe74db2b	-0.23911731
124	0xbedff5ee	-0.43742317
125	0xbe323d35	-0.17406161
126	0xbe916f44	-0.284052
127	0x3c0087b9	0.007844859
128	0x3f0c6ff7	0.54858345
129	0x3ed2cc70	0.41171598
130	0xbe13eab7	-0.14445005
131	0x3f124f10	0.5715189
132	0x3e7036e1	0.23458435
133	0x3efa954e	0.48942035
134	0x3efe01a2	0.4961062
135	0x3e249c9d	0.16075368
136	0xbe7791a1	-0.24176647
137	0x3ed65d6b	0.41868147
138	0xbe73ff9e	-0.23827979
139	0xbe9998d1	-0.29999402
140	0xbe982441	-0.2971516
141	0xbc0a6338	-0.008446507
142	0x3e4d1486	0.2002736
143	0xbeda3585	-0.42618957
144	0x3d7c4f80	0.061599255
145	0x3cf60fb1	0.03003678
146	0xbe8a1301	-0.26967624
147	0x3ca4a611	0.020098718
148	0xbe60de89	-0.2195989
149	0xbf169d8c	-0.5883415
150	0xbd8e487b	-0.06947418
151	0xbe0e25f7	-0.1388167
152	0x3e8b47df	0.2720327
153	0xbe84027b	-0.25783142
154	0xbe76efca	-0.2411491
155	0xbe08a357	-0.13343559
156	0xbe6d82d1	-0.23194434
157	0xbe66badf	-0.22532223
158	0x3ec83bcc	0.3910812
159	0x3ea235a6	0.31681556
160	0x3e2b3740	0.16720295
161	0xbee3d19d	-0.4449586
162	0xbd203ce7	-0.03912058
163	0xbea3e592	-0.32011086
164	0xbe0fbafb	-0.14036171
165	0x3e69330b	0.22773378
166	0x3eeb22d9	0.45925024
167	0x3edd7b14	0.43257964
168	0xbe654466	-0.22389373
169	0x3f0d618b	0.55226964
170	0xbea0ba91	-0.3139234
171	0x3e02e482	0.12782481
172	0x3e2e2f36	0.17010197
173	0x3f84421d	1.0332676
174	0x3c0d510e	0.008625282
175	0xbdad3a99	-0.08458442
176	0xbe22698d	-0.15860577
177	0xbe6527f4	-0.22378522
178	0x3dd435b8	0.103618085
179	0xbcef1d85	-0.02918888
180	0x3ec25eed	0.37963048
181	0xbde8bb97	-0.11363905
182	0x3ef0a151	0.46998075
183	0xbd1ee54d	-0.038792897
184	0x3d90e229	0.070743866
185	0x3f860b63	1.0472225
186	0x3e8283e7	0.25491259
187	0xbdd797da	-0.1052701
188	0xbe84bb5e	-0.259242
189	0xbd3190a1	-0.04335082
190	0xbde8279f	-0.11335682
191	0x3d49942c	0.049213573
192	0xbe437f79	-0.19091596
193	0x3d788e87	0.0606828
194	0x3ec22148	0.37916017
195	0x3f31755f	0.6931972
196	0x3e1395bb	0.14412586
197	0x3f18bcae	0.596629
198	0x3f42dd71	0.7611914
199	0xbe9e74c7	-0.3094847
200	0xbe851005	-0.25988784
201	0xbe8d0569	-0.2754319
202	0x3f2aecfd	0.66767865
203	0x3d289d4b	0.04116563
204	0x3de009d9	0.10939378
205	0xbe41631f	-0.18885468
206	0x3e1d8c6c	0.15385598
207	0xbb3513d8	-0.0027630236
208	0x3f20371c	0.6258409
209	0x3eb16d27	0.3465359
210	0xbddc1af5	-0.10747329
211	0x3ee46edb	0.44615826
212	0xbea4a23a	-0.3215502
213	0x3f254d50	0.64571095
214	0xbf5f8c07	-0.8732304
215	0xbea2f820	-0.3182993
216	0x3db4b049	0.08822686
217	0x3edb1343	0.42788133
218	0xbe3ce97f	-0.18448447
219	0x3e368532	0.17824247
220	0x3e07154f	0.13191722
221	0x3ddfbdde	0.10924886
222	0x3da45d89	0.08025653
223	0x3e66627a	0.22498503
224	0x3f1836c7	0.59458584
225	0xbe2fdd3a	-0.17174235
226	0x3f19b0e8	0.6003556
227	0xbe88a610	-0.26689196
228	0x3e541b4f	0.20713542
229	0xbdd3691b	-0.10322782
230	0x3e9fad82	0.31187063
231	0x3e9f9ca9	0.3117421
232	0x3f2876da	0.65806353
233	0x3f010f22	0.50413716
234	0xbe934d4f	-0.2876992
235	0xbe2b68b9	-0.16739167
236	0x3eeb2d95	0.45933214
237	0x3d1c72bb	0.038195353
238	0xbd0c70c5	-0.034287233
239	0xbe81cb4f	-0.25350425
240	0xbe57055f	-0.20998143
241	0x3b208bb2	0.0024497327
242	0x3eda56bd	0.426443
243	0xbefed960	-0.4977522
244	0x3ebb3d5f	0.3657026
245	0xbefee360	-0.49782848
246	0xbefecaf6	-0.49764222
247	0xbf00ecd8	-0.50361395
248	0x3e8a269f	0.2698259
249	0xbe81d3b2	-0.25356823
250	0x3f17a8c7	0.5924191
251	0xbefe1e81	-0.49632648
252	0x3ebe6756	0.37188214
253	0xbecfc321	-0.4057856
254	0xbdc51c00	-0.09624481
255	0xbc6d806b	-0.014495949

l1.bias f4 [8]
0	0x3f5b5360	0.85674095
1	0x3ef56558	0.47928882
2	0x3f699680	0.9124527
3	0x3f4d3939	0.8016544
4	0x3efedc64	0.4977752
5	0x3e841fae	0.2580542
6	0x3f5a8ae1	0.8536816
7	0x3f2df6d4	0.67954755

l2.weight f4 [8, 8]
0	0x3f58ab4d	0.84636384
1	0xbedf748a	-0.436436
2	0x3f9461a1	1.1592294
3	0xbf601e9e	-0.8754672
4	0xbecdf0ba	-0.40222722
5	0xbf290e8b	-0.66037816
6	0x3f762e67	0.96164554
7	0x3ed1a380	0.40945053
8	0x3e860a99	0.2617996
9	0x3ee18b34	0.44051516
10	0x3fa98338	1.324317
11	0x3f97d41f	1.1861609
12	0xbf8af6c0	-1.0856552
13	0xbf58e56d	-0.84725076
14	0x3f0b80ec	0.54493594
15	0x3f5e50dc	0.8684213
16	0xbf8eeca1	-1.1165963
17	0xbf2dd7f3	-0.6790764
18	0xbf3b6353	-0.7319843
19	0x3f4384ce	0.7637452
20	0x3ea02ff3	0.31286582
21	0xbeda2e36	-0.4261338
22	0x3f2a0f81	0.6642991
23	0x3f08445a	0.53229296
24	0xbed2159f	-0.4103212
25	0xbea4b5ef	-0.32170054
26	0xbf49be1b	-0.788057
27	0x3f3d2166	0.73879087
28	0x3f444166	0.7666229
29	0xbe6b27a7	-0.22964345
30	0x3f84fe23	1.0390056
31	0xbecdd48e	-0.4020123
32	0x3f5e5617	0.8685011
33	0xbe6d2aeb	-0.23160903
34	0x3e671f20	0.22570467
35	0xbf55066f	-0.8321294
36	0x3f690987	0.9103016
37	0x3f95ff2e	1.17185
38	0x3f587acb	0.8456237
39	0x3eff0c24	0.4981395
40	0x3e2bac1d	0.16764875
41	0x3e9b17ea	0.30291682
42	0x3e243267	0.16034852
43	0x3f521689	0.82065636
44	0x3faa5a49	1.3308803
45	0xbc076d5e	-0.008265821
46	0xbe64e806	-0.22354135
47	0xbf5d8ea7	-0.86545795
48	0x3f43bc44	0.76459146
49	0xbfa0302b	-1.25147
50	0x3d96dae7	0.07365971
51	0xbfc8cdbd	-1.5687786
52	0x3f4f307a	0.80933344
53	0xbd919c81	-0.07109929
54	0x3ea68f29	0.32531098
55	0x3e62e98d	0.22159405
56	0xbea85563	-0.32877645
57	0xbef7fe6a	-0.4843629
58	0xbf4e6d49	-0.80635506
59	0x3f24ec00	0.6442261
60	0x3f5fc612	0.87411606
61	0xbe71015e	-0.23535678
62	0x3f52e4b2	0.8238021
63	0xbf0a054b	-0.53914326

l2.bias f4 [8]
0	0x3ebb8898	0.3662765
1	0x3f1c784a	0.61121047
2	0x3e5653e5	0.2093044
3	0xbd98b5ae	-0.07456528
4	0x3f0c346d	0.54767495
5	0x3ebe51a5	0.37171665
6	0xbcfbf01b	-0.03075414
7	0x3eb31f56	0.34984845

l3.weight f4 [7, 8]
0	0xbf8fef9d	-1.1244999
1	0xbf6139d9	-0.87978894
2	0xbe8d17d2	-0.27557236
3	0xbf2dbcf0	-0.6786642
4	0x3f6c3f7a	0.9228436
5	0xbf52a30c	-0.8228004
6	0xbfebad04	-1.8412175
7	0xbf12d6df	-0.5735912
8	0xbf430afa	-0.76188624
9	0x3e1f47fc	0.15554804
10	0x3f176e61	0.591528
11	0x3f02b30b	0.5105445
12	0xbf9fba62	-1.2478755
13	0xbf1a8070	-0.6035223
14	0xbef118ca	-0.47089225
15	0x3ed0e67e	0.40800852
16	0xbed678a9	-0.4188893
17	0x3f45ead7	0.7731146
18	0xbf486080	-0.7827225
19	0xbf3ee489	-0.74567467
20	0xbfdc5ca0	-1.7215767
21	0x3f210325	0.62895423
22	0xbecf5356	-0.40493268
23	0xbf08b010	-0.5339365
24	0x3f529ece	0.82273567
25	0x3efac8f7	0.4898145
26	0xbf85f67e	-1.0465848
27	0xbebc0dcb	-0.36729273
28	0xbec97cf6	-0.3935315
29	0xbfaa4f50	-1.3305454
30	0xbf94410b	-1.158235
31	0xbeb983d4	-0.3623339
32	0xbfb12600	-1.3839722
33	0xbf701754	-0.93785596
34	0x3ec59669	0.38591316
35	0x3f2056c5	0.626324
36	0xbf15e929	-0.585589
37	0x3f1c94cd	0.6116455
38	0xbfc35285	-1.5259558
39	0x3f167bfe	0.5878295
40	0xbef144fb	-0.4712294
41	0xbf96aa09	-1.1770641
42	0xbf9f0c31	-1.2425596
43	0x3e53c436	0.20680317
44	0x3d6abbb9	0.057307933
45	0x3f2d5ac7	0.6771664
46	0x3ca024cf	0.019548802
47	0x3e87545d	0.26431552
48	0x3e9ad62b	0.30241522
49	0xbef2786a	-0.47357494
50	0xbf36d9a4	-0.71425843
51	0xbf9dcae2	-1.232754
52	0xbc723c8f	-0.014784946
53	0xbe4859ac	-0.19565457
54	0x3f95a4ae	1.1690881
55	0xbf936f6e	-1.1518381

l3.bias f4 [7]
0	0x3f64629e	0.8921298
1	0xbeae6c37	-0.34066936
2	0x3ebf9eb0	0.37425756
3	0x3e20fcf6	0.15721497
4	0xbe0154e8	-0.12630045
5	0xbe051641	-0.1299677
6	0xbe494d93	-0.19658498
